…
169353216/170498071 [============================>.] - ETA: 0s170500096/170498071 [==============================] - 17s 0us/step
x_train shape: (50000, 32, 32, 3)
50000 train samples
10000 test samples
<class 'numpy.ndarray'> <class 'numpy.ndarray'>
Model: "sequential"
_________________________________________________________________
Layer (type)                 Output Shape              Param #   
=================================================================
conv2d (Conv2D)              (None, 32, 32, 32)        896       
_________________________________________________________________
max_pooling2d (MaxPooling2D) (None, 16, 16, 32)        0         
_________________________________________________________________
conv2d_1 (Conv2D)            (None, 16, 16, 64)        18496     
_________________________________________________________________
max_pooling2d_1 (MaxPooling2 (None, 8, 8, 64)          0         
_________________________________________________________________
flatten (Flatten)            (None, 4096)              0         
_________________________________________________________________
dense (Dense)                (None, 512)               2097664   
_________________________________________________________________
dropout (Dropout)            (None, 512)               0         
_________________________________________________________________
dense_1 (Dense)              (None, 10)                5130      
=================================================================
Total params: 2,122,186
Trainable params: 2,122,186
Non-trainable params: 0
_________________________________________________________________
Epoch 1/15
 1/59 [..............................] - ETA: 3:01 - loss: 2.3288 - accuracy: 0.1094 2/5
…
